…
        "model.add(layers.Conv2D(64,5, strides=2,activation=\"elu\", use_bias=False))\n",
        "model.add(MaxPooling2D(4, strides=4))\n",
        "model.add(layers.Dropout(.4))\n",
        "model.summary()"
      ],
      "execution_count": 74,
      "outputs": [
        {
          "output_type": "stream",
          "text": [
            "Model: \"sequential_11\"\n",
            "_________________________________________________________________\n",
            "Layer (type)                 Output Shape              Param #   \n",
            "=================================================================\n",
            "rescaling_9 (Rescaling)      (None, 240, 320, 3)       0         \n",
            "_________________________________________________________________\n",
            "conv2d_55 (Conv2D)           (None, 118, 158, 24)      1800      \n",
            "_________________________________________________________________\n",
            "conv2d_56 (Conv2D)           (None, 57, 77, 36)        21600     \n",
            "_________________________________________________________________\n",
            "conv2d_57 (Conv2D)           (None, 27, 37, 48)        43200     \n",
            "_________________________________________________________________\n",
            "conv2d_58 (Conv2D)           (None, 12, 17, 64)        76800     \n",
            "_________________________________________________________________\n",
            "conv2d_59 (Conv2D)           (None, 4, 7, 64)          102400    \n",
            "_________________________________________________________________\n",
            "max_pooling2d (MaxPooling2D) (None, 1, 1, 64)          0         \n",
            "_________________________________________________________________\n",
            "dropout_7 (Dropout)          (None, 1, 1, 64)          0         \n",
            "=================================================================\n",
            "Total params: 245,800\n",
            "Trainable params: 245,800\n",
            "Non-trainable params: 0\n",
            "_________________________________________________________________\n"
          ],
          "name": "stdout"
        }
      ]
    },
    {
      "cell_type": "markdown",
…
        "model.add(layers.Dense(10,use_bias=False, input_shape = (50,)))\n",
        "model.add(layers.Dense(2,use_bias=False, input_shape = (10,)))\n",
        "model.summary()"
      ],
      "execution_count": 75,
      "outputs": [
        {
          "output_type": "stream",
          "text": [
            "Model: \"sequential_11\"\n",
            "_________________________________________________________________\n",
            "Layer (type)                 Output Shape              Param #   \n",
            "=================================================================\n",
            "rescaling_9 (Rescaling)      (None, 240, 320, 3)       0         \n",
            "_________________________________________________________________\n",
            "conv2d_55 (Conv2D)           (None, 118, 158, 24)      1800      \n",
            "_________________________________________________________________\n",
            "conv2d_56 (Conv2D)           (None, 57, 77, 36)        21600     \n",
            "_________________________________________________________________\n",
            "conv2d_57 (Conv2D)           (None, 27, 37, 48)        43200     \n",
            "_________________________________________________________________\n",
            "conv2d_58 (Conv2D)           (None, 12, 17, 64)        76800     \n",
            "_________________________________________________________________\n",
            "conv2d_59 (Conv2D)           (None, 4, 7, 64)          102400    \n",
            "_________________________________________________________________\n",
            "max_pooling2d (MaxPooling2D) (None, 1, 1, 64)          0         \n",
            "_________________________________________________________________\n",
            "dropout_7 (Dropout)          (None, 1, 1, 64)          0         \n",
            "_________________________________________________________________\n",
            "flatten_6 (Flatten)          (None, 64)                0         \n",
            "_________________________________________________________________\n",
            "dense_24 (Dense)             (None, 100)               6400      \n",
            "_________________________________________________________________\n",
            "dense_25 (Dense)             (None, 50)                5000      \n",
            "_________________________________________________________________\n",
            "dense_26 (Dense)             (None, 10)                500       \n",
            "_________________________________________________________________\n",
            "dense_27 (Dense)             (None, 2)                 20        \n",
            "=================================================================\n",
            "Total params: 257,720\n",
            "Trainable params: 257,720\n",
            "Non-trainable params: 0\n",
            "_________________________________________________________________\n"
          ],
          "name": "stdout"
        }
      ]
    },
    {
      "cell_type": "code",
      "metadata": {
…
